checkpoint/MEFNet_release.pt (torch_old, 333528 bytes, 57 tensors)

lr.0.weight f4 [24, 1, 3, 3]
0.122594476 -0.048244607 -0.055703904 -0.13582814 -0.12580237 -0.0328844 0.12895758 0.12606728
0.045924872 -0.10426331 0.16624366 0.039458875 0.051662922 -0.07241921 -0.09056255 -0.013096991
0.13132839 -0.035918728 0.03972649 0.028159896 -0.10231137 0.14296341 0.07444993 -0.038340427
-0.070442654 -0.06830641 0.09659326 0.14839938 0.048392095 -0.055201437 0.05676132 -0.07450192
-0.04305496 0.10919297 0.071863696 -0.15603924 0.098030105 -0.021145493 -0.1975113 -0.004734829
-0.024388516 -0.06533695 -0.09711032 -0.1500781 -0.1731642 -0.057020374 0.0012324776 -0.110521376
-0.20894402 -0.09709691 0.01998721 -0.1777875 0.10462698 -0.058142543 -0.19640684 -0.0014669292
-0.09665945 -0.088055976 0.015898293 -0.06285614 -0.010648654 -0.110693544 0.14761382 -0.09842689
-0.12725203 -0.01690963 0.092060305 -0.12976003 -0.04441557 0.12994044 -0.09586096 -0.06458476
-0.06634027 -0.0791001 0.09331904 0.11464509 0.046409305 -0.1484707 0.068283625 -0.056808855
0.07324748 0.034603696 0.038304374 0.11378292 -0.12460024 0.003071046 0.008705392 -0.11535116
0.16046213 -0.06306125 -0.07507158 -0.017569523 0.015977457 0.17606501 -3.5125693e-05 -0.08598095
0.021971874 -0.009958407 -0.07057436 0.04275397 0.034832917 0.067686275 0.082093865 -0.07436931
0.072781086 -0.152207 -0.053668473 -0.012550671 0.02869018 0.081430376 0.08055809 0.063700855
-0.10771682 -0.093494676 0.023811327 -0.028736725 -0.058553595 0.124834195 0.0073797433 -0.090855256
0.13528135 0.000561165 0.057374552 -0.16898517 -0.14121594 0.07448286 0.10850024 0.082782894
0.0044367597 0.083183244 0.08398571 -0.062913544 0.105636545 0.012932581 -0.0032499412 -0.03925797
0.0046430747 0.14978296 -0.13458073 0.052833192 -0.11220318 -0.087506495 0.11244462 -0.054899894
0.15205824 0.071789086 -0.14048456 -0.104880735 0.1334131 -0.044594154 0.0024373946 -0.092944674
0.064296745 0.097924106 0.07374154 0.12032431 0.045987777 0.1280821 -0.14187574 -0.045635678
0.12520692 0.11626531 -0.07169302 0.17873594 0.19377537 -0.1529261 -0.044636942 -0.07603662
-0.09497703 0.020952022 0.047675602 -0.08319178 0.11143189 0.025153069 0.12809977 -0.062424503
-0.059888907 -0.024108924 -0.08363584 0.10719977 -0.13812979 -0.061121777 -0.04786623 0.06457248
0.12240507 -0.06919653 0.04969081 0.05673721 0.046934035 -0.05366075 0.1568324 -0.1168408
0.177748 -0.11210217 -0.060469486 0.1518239 -0.10941903 -0.0414883 -0.08210538 0.03376355
-0.06927902 0.10293931 0.12909642 0.03724842 -0.09718384 0.0036696896 -0.0032778697 0.090418346
0.11138875 0.10359179 0.11552952 0.030353425 -0.07647027 0.017955754 0.01742423 0.11470034
00000000: d012 fb3d 239c 45bd c729 64bd 8816 0bbe
00000010: 56d2 00be cbb1 06bd 750d 043e c817 013e
00000020: b81b 3c3d 0188 d5bd c73b 2a3e a19f 213d
00000030: 809c 533d 8650 94bd dc78 b9bd c394 56bc
00000040: f37a 063e 841f 13bd 3eb8 223d 95af e63c
00000050: a088 d1bd 0065 123e 3479 983d da0a 1dbd
00000060: 3d44 90bd 3be4 8bbd b0d2 c53d 02f6 173e
00000070: ca36 463d e71a 62bd 8f7e 683d 7694 98bd
00000080: 665a 30bd 90a0 df3d 462d 933d c0c8 1fbe
00000090: 02c4 c83d 5039 adbc 6740 4abe a026 9bbb
000000a0: 6dca c7bc 61cf 85bd c7e1 c6bd 13ae 19be
000000b0: f551 31be 328e 69bd 168b a13a 0859 e2bd
000000c0: 6cf5 55be bfda c6bd 38bc a33c ed0d 36be
000000d0: ac46 d63d e026 6ebd e01e 49be fa45 c0ba
000000e0: 64f5 c5bd b156 b4bd 233d 823c b8ba 80bd
000000f0: b177 2ebc 4cb3 e2bd 1428 173e 0a94 c9bd
00000100: 5b4e 02be 1086 8abc 1d8a bc3d d0df 04be
00000110: 1aed 35bd 1b0f 053e c052 c4bd 0445 84bd
00000120: 68dd 87bd 3cff a1bd 0e1e bf3d 0ccb ea3d
00000130: af17 3e3d b408 18be 49d8 8b3d 67b0 68bd
00000140: c602 963d 9bbc 0d3d 0ce5 1c3d 0507 e93d
00000150: 692e ffbd 9a43 493b 0fa1 0e3c 3b3d ecbd
00000160: 2f50 243e 4226 81bd 21bf 99bd f6ed 8fbc
00000170: 28e3 823c 634a 343e ed53 13b8 c816 b0bd
00000180: 5cfe b33c 9628 23bc 4a89 90bd c91e 2f3d
00000190: f6ac 0e3d 1a9f 8a3d d420 a83d f04e 98bd
000001a0: 400e 953d 27dc 1bbe 79d3 5bbd 54a1 4dbc
000001b0: ab07 eb3c f8c4 a63d a4fb a43d 9875 823d
000001c0: a39a dcbd 237a bfbd f90f c33c 4869 ebbc
000001d0: e5d5 6fbd 12a9 ff3d c6d1 f13b 5212 babd
000001e0: 3287 0a3e 251b 133a 9401 6b3d 730a 2dbe
000001f0: e99a 10be 788a 983d 6035 de3d 148a a93d
00000200: 3d62 913b fa5b aa3d b300 ac3d d1d8 80bd
00000210: f957 d83d 2de3 533c f7fc 54bb f7cc 20bd
00000220: ef24 983b b460 193e 88cf 09be 9e67 583d
00000230: c8ca e5bd 9b36 b3bd 5d49 e63d b6de 60bd
00000240: 28b5 1b3e 2806 933d 2fdb 0fbe b6cb d6bd
00000250: 729d 083e 5ca8 36bd b2bc 1f3b c759 bebd
00000260: 03ae 833d 6f8c c83d ce05 973d 986c f63d
00000270: ae5d 3c3d f427 033e e047 11be 7aec 3abd
00000280: 3e36 003e 821c ee3d cad3 92bd 8e06 373e
00000290: 0d6d 463e a998 1cbe 3ad5 36bd 16b9 9bbd
000002a0: 5183 c2bd 93a3 ab3c 7e47 433d 7460 aabd
000002b0: 6736 e43d cf0d ce3c 962c 033e d6b0 7fbd
000002c0: 124e 75bd 1480 c5bc 4449 abbd 8e8b db3d
000002d0: e571 0dbe d45a 7abd 610f 44bd 943e 843d
000002e0: 82af fa3d e9b6 8dbd 9788 4b3d 4765 683d
000002f0: e73d 403d 60cb 5bbd ac98 203e 3b4a efbd
00000300: 9203 363e d395 e5bd daae 77bd b977 1b3e
00000310: 1617 e0bd a3ef 29bd de26 a8bd a64b 0a3d
00000320: 29e2 8dbd d8d1 d23d da31 043e cd91 183d
00000330: 5208 c7bd 2d7f 703b 87d1 56bb 412d b93d
00000340: c91f e43d ef27 d43d be9a ec3d bfa7 f83c
00000350: 729c 9cbd f217 933c 42bd 8e3c 03e8 ea3d

lr.1.in_norm.weight f4 [24]
1.0750778 1.0917337 1.0310408 0.92994714 0.97315073 0.8852803 0.9155559 1.0147456
1.1192921 1.0638973 1.1581727 0.95569694 1.0802728 1.016171 0.8448448 1.1799946
1.1007435 0.88275266 0.8713912 1.1184604 1.0895232 1.0354245 0.99519676 0.8262094
00000000: 269c 893f eebd 8b3f 25f9 833f 0411 6e3f
00000010: 6820 793f bba1 623f df61 6a3f 2fe3 813f
00000020: f744 8f3f c92d 883f 013f 943f 8ea8 743f
00000030: 6146 8a3f e411 823f c047 583f 100a 973f
00000040: 2ae5 8c3f 14fc 613f 7e13 5f3f b629 8f3f
00000050: 7f75 8b3f ca88 843f 37c5 7e3f 7682 533f

lr.1.in_norm.bias f4 [24]
0.094598316 0.048054826 0.2152544 -0.2998138 0.09924412 0.06093436 -0.0017780145 0.14907376
0.17378895 0.2456777 -0.052452706 0.08929094 0.26559538 -0.012808825 -0.21447517 0.1988617
0.14622408 -0.19568291 -0.08282276 -0.22356641 0.039824046 0.32425207 -0.33334422 -0.11170954
00000000: c3bc c13d 23d5 443d a66b 5c3e 3281 99be
00000010: 8040 cb3d 4f96 793d 440c e9ba cba6 183e
00000020: bbf5 313e ef92 7b3e a6d8 56bd 2bde b63d
00000030: 1efc 873e 1bdc 51bc 619f 5bbe 67a2 4b3e
00000040: c4bb 153e 1a61 48be fb9e a9bd 98ee 64be
00000050: 8a1e 233d 5e04 a63e 18ac aabe f9c7 e4bd

lr.3.weight f4 [24, 24, 3, 3]
0.009945227 0.054999545 0.0054637673 0.0790597 0.016333297 0.025128668 0.08723133 0.04797089
-0.10054049 0.20056827 0.04394663 0.115463756 0.17310879 0.04892756 0.06732754 0.10420993
0.091939114 0.14074463 0.02535708 0.0429384 -0.07015173 0.10453486 0.08936079 0.049089577
0.02540368 0.018720897 0.12608401 0.06766597 0.0011436766 0.035357032 -0.056369368 -0.078772545
0.09338614 -0.10011158 -0.038923502 0.03320103 0.08379639 0.11814969 0.01489041 0.074163
-0.0016144713 0.060353853 0.082186736 -0.026828073 -0.025050627 -0.08303373 0.11327942 0.016098643
-0.08548668 0.094342306 0.070153646 -0.065334335 -0.012669544 -0.028272307 0.14149524 0.113441736
0.11975884 0.0060363575 0.11442683 0.04194987 0.12841842 -0.084676236 0.13286619 0.02424225
0.06533233 -0.03153052 -0.03597834 -0.0434636 -0.0356961 0.06672753 0.1113408 0.03277992
-0.06484628 0.10481468 0.09225777 0.10528188 0.06967205 -0.0123175895 -0.08727974 -0.020308796
-0.10273297 0.09444859 0.01971958 -0.011840433 0.07364845 0.038626436 -0.09774882 -0.012492121
0.045771375 0.046423618 -0.073969945 -0.03328969 0.09826619 0.028788604 0.021413336 -0.119313575
0.047558844 0.020266037 -0.09502343 -0.06614607 0.004332045 0.03870323 -0.09111822 0.016070852
0.029729571 -0.05206063 0.0020920483 0.086371556 -0.12664092 0.025235163 0.06289753 0.036263023
-0.08462918 0.0030737177 -0.058194906 -0.060095474 -0.12111923 0.14329825 0.07462604 0.06793022
0.14838353 0.1477989 0.13204798 -0.0028445972 0.18396845 0.07396456 -0.052704234 -0.014089227
0.0010396807 -0.074400716 0.0057724845 0.10076025 -0.04604624 -0.019711753 0.106125504 0.010680364
-0.07802321 -0.030980809 0.049613636 0.031132145 0.06785862 0.052962508 0.051974267 0.012766438
0.09643013 0.022725822 0.0016951535 -0.02957291 0.016872838 0.05828646 0.08427238 0.04828551
0.055321515 -0.044262953 -0.029793773 -0.014574955 -0.07552018 0.0022684545 -0.097069845 0.05041915
0.00986394 0.008914247 0.11224451 -0.106729284 0.0898376 -0.031553354 0.043958016 0.053450797
-0.056640696 -0.04686964 -0.06949437 -0.028795619 -0.119475715 -0.11966929 0.026210465 0.082418084
-0.028569032 0.019937871 0.07088308 0.05481053 0.012771349 -0.011157963 -0.025251403 -0.055194523
0.003496609 -0.11030195 0.035307705 0.07903564 -0.051293775 0.008552815 -0.10038806 -0.13207068
-0.028354665 -0.0069759507 0.038970444 0.01226661 0.0070804623 0.052040197 -0.11322196 0.094658196
0.027364237 0.063687555 -0.08229704 -0.15677732 -0.10840219 -0.014941213 -0.038874734 0.040155992
-0.0052558407 -0.08661452 -0.074610546 -0.015108165 0.06885719 0.07236859 0.03227076 -0.11299445
0.07843146 0.020297732 0.120692156 -0.006673724 0.06887586 -0.0070145503 -0.03416293 0.030851958
-0.066509746 0.026665566 0.028996294 0.055930447 0.15959617 0.08954413 0.24380384 0.16382068
-0.052751485 0.12589617 0.113141075 0.03958652 -0.09235248 -0.01253011 -0.016646596 -0.031215752
-0.06530798 0.10430442 -0.077060536 0.053262323 0.037823804 0.052536335 -0.10474605 -0.030211499
0.03622783 -0.0008810405 -0.020714266 -0.0051290523 -0.07441841 -0.073462464 -0.0876065 -0.04421378
00000000: 4ef1 223c 3447 613d 6709 b33b 0dea a13d
00000010: 68cd 853c a3da cd3c 57a6 b23d 207d 443d
00000020: 2ce8 cdbd c561 4d3e 6201 343d 4378 ec3d
00000030: 6e43 313e 4468 483d 05e3 893d 046c d53d
00000040: 934a bc3d 5c1f 103e a7b9 cf3c 2de0 2f3d
00000050: b6ab 8fbd 5f16 d63d ca02 b73d 2712 493d
00000060: 611b d03c 915c 993c 2b1c 013e 7594 8a3d
00000070: 6be7 953a 89d2 103d 91e3 66bd 8053 a1bd
00000080: 3c41 bf3d 4d07 cdbd 406e 1fbd cefd 073d
00000090: 719d ab3d 77f8 f13d e8f6 733c c5e2 973d
000000a0: ab9c d3ba 9a35 773d 8551 a83d 8cc6 dbbc
000000b0: f936 cdbc 970d aabd 0aff e73d 4de1 833c
000000c0: a413 afbd 8a36 c13d b7ac 8f3d 02ce 85bd
000000d0: eb93 4fbc 539b e7bc 21e4 103e 2454 e83d
000000e0: 1f44 f53d a3cc c53b 9d58 ea3d a0d3 2b3d
000000f0: 1e80 033e bc6a adbd 130e 083e af97 c63c
00000100: f5cc 853d 2626 01bd 065e 13bd e306 32bd
00000110: 1336 12bd 71a8 883d a506 e43d 3d44 063d
00000120: 20ce 84bd 14a9 d63d a4f1 bc3d 079e d73d
00000130: 38b0 8e3d b7cf 49bc b8bf b2bd a25e a6bc
00000140: aa65 d2bd 436e c13d f58a a13c 60fe 41bc
00000150: 00d5 963d c136 1e3d 8930 c8bd c1ab 4cbc
00000160: c47a 3b3d b126 3e3d 8e7d 97bd c55a 08bd
00000170: c93f c93d 14d6 eb3c 056b af3c ad5a f4bd
00000180: 10cd 423d f604 a63c a59b c2bd 9777 87bd
00000190: d4f3 8d3b 4787 1e3d 309c babd 05a7 833c
000001a0: 6e8b f33c 873d 55bd bf1a 093b 92e3 b03d
000001b0: 28ae 01be f9b9 ce3c 6cd0 803d 8988 143d
000001c0: 1052 adbd 6d70 493b c85d 6ebd ac26 76bd
000001d0: 5c0d f8bd c7bc 123e 8ad5 983d 001f 8b3d
000001e0: daf1 173e 9858 173e 9637 073e 6c6c 3abb
000001f0: 3a62 3c3e bb7a 973d 65e0 57bd 80d6 66bc
00000200: e545 883a 675f 98bd 1c27 bd3b 645b ce3d
00000210: fb9a 3cbd 8b7a a1bc 5458 d93d b2fc 2e3c
00000220: a2ca 9fbd 77cb fdbc ab37 4b3d d708 ff3c
00000230: 76f9 8a3d 37ef 583d f8e2 543d 522a 513c
00000240: 297d c53d 812b ba3c ea2f de3a e342 f2bc
00000250: e838 8a3c c8bd 6e3d ff96 ac3d 07c7 453d
00000260: d098 623d 124d 35bd 1212 f4bc cbcb 6ebc
00000270: 53aa 9abd 5aaa 143b 8ecc c6bd 5084 4e3d
00000280: 5d9c 213c 100d 123c 73e0 e53d e294 dabd
00000290: c7fc b73d 173e 01bd 520d 343d 39ef 5a3d
000002a0: 1300 68bd 61fa 3fbd 1053 8ebd cae4 ebbc
000002b0: afaf f4bd 2c15 f5bd 54b7 d63c d0ca a83d
000002c0: 9a09 eabc bf54 a33c 262b 913d 0281 603d
000002d0: ec3e 513c e4cf 36bc 08dc cebc a713 62bd
000002e0: 5d27 653b fde5 e1bd d09e 103d 70dd a13d
000002f0: 6c19 52bd 1b21 0c3c 4198 cdbd 893d 07be
00000300: 0b48 e8bc 8496 e4bb 799f 1f3d e4f9 483c
00000310: 3903 e83b 1a28 553d eae0 e7bd 28dc c13d
00000320: f72a e03c 9f6e 823d 5a8b a8bd 3c8a 20be
00000330: f801 debd fdcb 74bc 1d3b 1fbd 9c7a 243d
00000340: 3039 acbb f462 b1bd 6acd 98bd 3d88 77bc
00000350: 0005 8d3d fc35 943d 582e 043d a269 e7bd
00000360: aca0 a03d 6e47 a63c 732d f73d 41af dabb
00000370: c90e 8d3d 50da e5bb 6eee 0bbd 3fbd fc3c
00000380: 4336 88bd bf71 da3c a389 ed3c 5317 653d
00000390: 2e6d 233e ea62 b73d b7a7 793e 9cc0 273e
000003a0: f111 58bd edea 003e 82b6 e73d 7a25 223d
000003b0: 4c23 bdbd 174b 4dbc 715e 88bc 2db8 ffbc
000003c0: 31c0 85bd 8e9d d53d ead1 9dbd 9829 5a3d
000003d0: 22ed 1a3d 5730 573d 1985 d6bd 1b7e f7bc
000003e0: a263 143d a1f5 66ba f7b0 a9bc 9c11 a8bb
000003f0: ae68 98bd 7d73 96bd 096b b3bd 8219 35bd

lr.4.in_norm.weight f4 [24]
1.0782762 1.0005229 1.039977 0.9847588 1.0859994 0.7796082 1.0448065 1.0533774
0.8992341 1.2393817 0.89256835 0.8228444 0.9854656 1.0010124 0.81659913 0.8283792
1.1149454 1.0556616 0.9087174 1.0283767 1.0120549 1.215713 1.0409368 1.078607
00000000: f404 8a3f 2211 803f f71d 853f 2719 7c3f
00000010: 0702 8b3f 6794 473f 38bc 853f 12d5 863f
00000020: 3534 663f 0fa4 9e3f 5c7f 643f eea5 523f
00000030: 7947 7c3f 2d21 803f a40c 513f a910 543f
00000040: 88b6 8e3f eb1f 873f b4a1 683f d9a1 833f
00000050: 048b 813f 7c9c 9b3f 6b3d 853f cb0f 8a3f

lr.4.in_norm.bias f4 [24]
-0.077020824 0.063238315 0.27724415 0.04352541 0.059733912 0.14526467 -0.076939024 -0.024259426
-0.07883461 0.056490827 0.035938185 0.15457061 -0.13687935 0.19156994 0.23864426 -0.11226235
-0.16293882 0.20527531 -0.062430378 -3.9350743e-05 -0.15587637 0.08024792 -0.18026772 0.043628797
00000000: 18bd 9dbd 1783 813d f2f2 8d3e b347 323d
00000010: 8cab 743d 43c0 143e 3592 9dbd b4bb c6bc
00000020: 0a74 a1bd ed62 673d eb33 133d c247 1e3e
00000030: 1a2a 0cbe e92a 443e 295f 743e cee9 e5bd
00000040: 6fd9 26be b133 523e ffb6 7fbd 8a0c 25b8
00000050: 0e9e 1fbe 0559 a43d 1a98 38be 1cb4 323d

lr.6.weight f4 [24, 24, 3, 3]
-0.013466566 -0.0106941005 -0.045865394 0.09594484 0.026938148 -0.014851545 0.020077417 -0.13250947
-0.07781886 0.08014501 0.13962586 0.08369033 -0.033144277 0.08906111 0.122463785 0.05908777
0.053066958 0.048716586 0.043745346 0.0076482124 0.042923708 0.055280518 0.09553986 0.29288346
0.053007226 0.08188092 0.15447849 0.0074578896 -0.15427178 -0.09081453 -0.052209344 -0.045257982
-0.18587497 0.01002348 -0.05147315 -0.070063904 -0.03833389 -0.047099423 0.08858951 -0.025120877
0.08948888 -0.1102542 -0.084203094 0.07223992 -0.029280895 0.05026599 -0.06826445 0.056087043
0.051556766 -0.035440546 -0.0323701 0.024134884 -0.07747518 0.010010576 -0.045043495 -0.20969863
-0.15565895 -0.053046275 0.12706266 -0.069475904 0.04064015 -0.029073115 -0.06868352 -0.051613823
-0.008992711 -0.033323616 -0.031128857 -0.0313583 -0.011963393 0.08823461 0.11564398 0.087665886
-0.0648621 0.06770276 0.054337066 -0.008762441 0.10425875 0.0570103 0.12484878 -0.108620755
-0.10280871 -0.056024276 -0.054963235 -0.06258125 0.03585833 -0.09744682 0.11479589 -0.09454176
0.011129028 -0.10069745 -0.10487401 -0.043228045 -0.08823122 -0.089603096 -0.06826368 0.00384852
-0.17628796 -0.1672919 0.011176982 0.05363758 0.1470014 0.0663822 0.12004025 0.012344849
-0.064113095 0.010601888 0.05535441 -0.029075842 0.05672658 0.074205615 0.05111162 0.03838371
0.06994516 -0.062179986 0.013281659 0.016502108 0.0628095 0.104259096 -0.009548618 0.1194422
0.04228853 -0.08991111 0.102086976 -0.015738316 0.09063441 -0.051044356 -0.00020614927 0.09181941
0.113634355 -0.0516347 0.22035684 0.116184816 0.031394567 0.113162346 0.07792919 0.027917942
0.102925435 -0.013010057 -0.09366167 -0.111950696 0.10093333 -0.05830768 0.11933995 0.068054624
0.005674055 -0.14339338 -0.023939306 -0.111232236 -0.016357046 -0.1615105 -0.03560255 -0.107190445
0.012589339 0.09792753 0.021455226 -0.0034562792 0.049870733 0.06903475 0.051154677 0.094151184
0.012873391 0.06851869 -0.037083026 -0.047046196 -0.21575354 -0.085390136 0.047114126 -0.03676338
-0.11720347 -0.06452065 -0.030516217 -0.11442737 -0.08167123 0.039961457 0.050594695 0.09370814
-0.009776198 0.0063378867 0.0633191 -0.084141545 0.01863235 -0.024248406 0.037256565 0.024295086
0.0192414 0.029224645 -0.045623295 0.09052066 0.0011122777 -0.01331539 -0.0574659 0.030924207
-0.03069312 -0.031640336 0.099392585 0.003291485 -0.048815597 0.060524404 0.15397464 0.04460571
-0.03858759 -0.09396758 0.08368887 -0.048778266 -0.06623976 0.095542915 0.064150624 -0.10996061
0.0084278155 0.028236264 0.08428021 0.054503307 0.07616814 0.040249106 -0.012928982 -0.09744723
0.10243991 0.11903379 -0.009328615 0.083291985 0.01173774 -0.040383097 0.080384366 -0.096149646
0.055641018 -0.01145987 -0.08090967 0.093397945 -0.051047727 0.09090429 -0.09985732 -0.0007864696
0.031702816 -0.08018657 0.07712374 -0.10070779 0.03780617 0.028749611 0.009230486 -0.13816525
0.07668034 -0.13799924 -0.15162998 -0.004211473 0.044390913 -8.168063e-05 -0.068779305 0.20442587
-0.018996878 0.06111609 0.016343864 0.12605745 0.03219638 0.028697671 0.034722563 -0.03309257
00000000: dfa2 5cbc 4f36 2fbc 5add 3bbd ba7e c43d
00000010: 64ad dc3c e553 73bc 6579 a43c 90b0 07be
00000020: 7f5f 9fbd 1123 a43d 15fa 0e3e d665 ab3d
00000030: 4bc2 07bd ac65 b63d 4bce fa3d 0406 723d
00000040: bd5c 593d 0b8b 473d 522e 333d db9d fa3b
00000050: c5d0 2f3d d36d 623d 67aa c33d d2f4 953e
00000060: 1b1e 593d 2fb1 a73d 9c2f 1e3e 5061 f43b
00000070: 6cf9 1dbe f8fc b9bd 77d9 55bd 6f60 39bd
00000080: 0256 3ebe 8639 243c 82d5 52bd aa7d 8fbd
00000090: ff03 1dbd 53eb 40bd 6b6e b53d 4cca cdbc
000000a0: f245 b73d f4cc e1bd ac72 acbd 86f2 933d
000000b0: 7dde efbc b6e3 4d3d 3bce 8bbd 87bb 653d
000000c0: 302d 533d 1b2a 11bd 8396 04bd 85b6 c53c
000000d0: 4fab 9ebd 6603 243c 877f 38bd 3dbb 56be
000000e0: 0f65 1fbe 0d47 59bd b71c 023e 6249 8ebd
000000f0: 4976 263d be2a eebc f2a9 8cbd 0469 53bd
00000100: 2a56 13bc 587e 08bd f201 ffbc 9071 00bd
00000110: 1b02 44bc 59b4 b43d c0d6 ec3d 2c8a b33d
00000120: 6cd6 84bd bfa7 8a3d 8b90 5e3d 5790 0fbc
00000130: 9d85 d53d a283 693d b8b0 ff3d 8f74 debd
00000140: 5f8d d2bd b679 65bd 2121 61bd 992a 80bd
00000150: 2fe0 123d 3392 c7bd 1c1a eb3d 1c9f c1bd
00000160: 8756 363c 773a cebd 2fc8 d6bd e40f 31bd
00000170: 92b2 b4bd d481 b7bd d4cd 8bbd 7437 7c3b
00000180: d584 34be 914e 2bbe a91f 373c 14b3 5b3d
00000190: 8987 163e 64f3 873d aad7 f53d 0d42 4a3c
000001a0: ba4d 83bd 8bb3 2d3c 4ebb 623d 7630 eebc
000001b0: 215a 683d 1df9 973d 6b5a 513d 3d38 1d3d
000001c0: 683f 8f3d 71b0 7ebd 519b 593c 6e2f 873c
000001d0: 44a2 803d cb85 d53d cf71 1cbc 1d9e f43d
000001e0: bd36 2d3d 5123 b8bd fa12 d13d a4ed 80bc
000001f0: 899e b93d e313 51bd c629 58b9 d10b bc3d
00000200: 21b9 e83d e87e 53bd 39a5 613e 4ef2 ed3d
00000210: 9797 003d a9c1 e73d 5799 9f3d 2bb4 e43c
00000220: 92ca d23d 2228 55bc b1d1 bfbd 6846 e5bd
00000230: 22b6 ce3d 09d4 6ebd 8168 f43d 3960 8b3d
00000240: 6ced b93b b7d5 12be 5d1c c4bc bacd e3bd
00000250: 36ff 85bc 0263 25be fbd3 11bd aa86 dbbd
00000260: 8443 4e3c 3b8e c83d dfc2 af3c be82 62bb
00000270: 4145 4c3d 1762 8d3d 9187 513d 56d2 c03d
00000280: eaea 523c 8753 8c3d 5fe4 17bd 83b3 40bd
00000290: 7fee 5cbe 06e1 aebd befa 403d 3395 16bd
000002a0: 5f08 f0bd 6723 84bd 25fd f9bc e658 eabd
000002b0: 3f43 a7bd a0ae 233d 623c 4f3d 0eea bf3d
000002c0: 592c 20bc 0cae cf3b 72ad 813d 6752 acbd
000002d0: dfa2 983c 98a4 c6bc 579a 183d 7d06 c73c
000002e0: 24a0 9d3c 8668 ef3c 7edf 3abd e562 b93d
000002f0: d9c9 913a cb28 5abc 5d61 6bbd c354 fd3c
00000300: 2370 fbbc 4c99 01bd 578e cb3d f4b5 573b
00000310: ddf2 47bd 70e8 773d 87ab 1d3e 7ab4 363d
00000320: 050e 1ebd 1372 c0bd 1265 ab3d b8cb 47bd
00000330: b6a8 87bd 01ac c33d 6761 833d 0733 e1bd
00000340: d214 0a3c bd4f e73c 1a9b ac3d dc3e 5f3d
00000350: 0bfe 9b3d 3fdc 243d 15d4 53bc 6a92 c7bd
00000360: 04cc d13d fdc7 f33d 0cd7 18bc fd94 aa3d
00000370: a64f 403c bf68 25bd 8fa0 a43d 1bea c4bd
00000380: d6e7 633d 2ec2 3bbc f8b3 a5bd 6c47 bf3d
00000390: 6c17 51bd 072c ba3d ff81 ccbd 152b 4eba
000003a0: d0da 013d db38 a4bd 0df3 9d3d e33f cebd
000003b0: a4da 1a3d 4e84 eb3c 773b 173c 317b 0dbe
000003c0: 950a 9d3d ac4f 0dbe e444 1bbe 6500 8abb
000003d0: 3fd3 353d f44b abb8 2adc 8cbd 0455 513e
000003e0: 579f 9bbc dd54 7a3d 91e3 853c 3415 013e
000003f0: 5ae0 033d 6117 eb3c 3f39 0e3d 138c 07bd

lr.7.in_norm.weight f4 [24]
0.8932617 1.1940697 1.1293825 1.1256834 0.9917076 1.1515801 0.92785007 1.2270104
0.8658162 0.9926781 1.1776437 1.0378836 0.9178755 0.85549676 0.9209563 1.1494149
0.9901697 0.8388538 0.9059304 0.6958873 0.8740303 0.9079123 1.1026685 0.9239086
00000000: ccac 643f 47d7 983f 9b8f 903f 6516 903f
00000010: 8de0 7d3f fa66 933f 9587 6d3f ad0e 9d3f
00000020: 21a6 5d3f 2720 7e3f 07bd 963f 5fd9 843f
00000030: e4f9 6a3f d601 5b3f cbc3 6b3f 0720 933f
00000040: c37b 7d3f 1fbf 563f 0eeb 673f ac25 323f
00000050: 73c0 5f3f f16c 683f 3e24 8d3f 4685 6c3f

lr.7.in_norm.bias f4 [24]
0.2179335 -0.18756999 0.053745404 -0.061187726 -0.0099668 -0.03436732 -0.090765975 0.054536283
-0.015580967 -0.026407726 -0.09460247 -0.009267705 -0.094601355 -0.085072696 -0.023954676 -0.09695613
-0.14164606 -0.036629334 -0.014636387 -0.037108604 0.18596178 -0.10163742 -0.18013518 0.11402705
00000000: f629 5f3e 5912 40be 2424 5c3d fb9f 7abd
00000010: ca4b 23bc bfc4 0cbd 83e3 b9bd 7061 5f3d
00000020: 5047 7fbc 0455 d8bc f1be c1bd 92d7 17bc
00000030: 5bbe c1bd 983a aebd 993c c4bc ef90 c6bd
00000040: aa0b 11be a408 16bd 75cd 6fbc 31ff 17bd
00000050: c46c 3e3e 4827 d0bd 5b75 38be 0487 e93d

lr.9.weight f4 [24, 24, 3, 3]
-0.005497968 0.009681005 0.00014082044 -0.00024900955 -0.13610235 -0.034385245 -0.061989572 -0.021625318
0.006459024 0.097089574 -0.004358751 -0.087199636 0.11177705 0.19627418 -0.049024243 0.0017349089
0.11336303 0.07675541 -0.047754712 -0.124412574 -0.13622497 -0.08625828 0.038018893 0.03330502
-0.0954652 0.015239045 -0.03306254 -0.08220986 0.10210865 0.049475 0.107442975 0.10706727
0.05841136 0.077299766 0.13110468 -0.027963268 -0.021759978 -0.015746983 -0.024598071 -0.04556642
0.13224967 -0.07175718 0.06602828 0.030418323 -0.08928982 -0.030592026 -0.04739303 0.081342556
0.027139252 0.12662679 -0.070642 0.020143686 -0.031677116 0.116217844 0.058055572 -0.0860336
0.031881675 -0.048727516 0.08502017 0.03643279 0.02315741 -0.064291894 0.07444955 -0.14780745
-0.05648556 -0.11864074 0.050713867 -0.014302876 0.0025808718 -0.012596709 -0.06419821 0.049017087
-0.06949878 -0.06394421 0.044655643 -0.08322215 -0.24013835 0.0054109376 -0.018848278 -0.080787174
-0.06965442 -0.042695776 0.077914655 0.060221147 0.00015993553 -0.15791486 0.13554022 0.05719277
-0.022421392 -0.053712174 -0.072453685 0.11531883 -0.015157919 -0.025065387 0.075634636 0.066098735
-0.0582845 0.073763 -0.035168517 0.04510586 0.01844923 0.038314752 -0.060755767 -0.13658617
0.087011665 0.07259567 0.017390823 0.06686819 0.064148396 0.01376027 0.09542858 0.037934642
0.2501566 -0.06799139 -0.057961218 0.11196369 0.123337716 0.042164393 -0.06696933 -0.11884331
0.008851516 0.17056984 -0.12881702 0.018004814 0.006045364 0.04191317 0.09686394 0.10196339
-0.04302403 -0.028359145 -0.10080222 0.095650114 0.036033954 -0.04981868 -0.0051789167 0.03277688
-0.0035088758 0.007104804 -0.027470881 -0.004035519 0.020341998 0.06714844 -0.033371985 0.046898063
0.020928942 0.10130002 -0.03675571 0.1068445 0.16527723 0.052068606 0.04506916 0.0067783785
-0.06320604 -0.090022296 0.07228966 -0.05867429 -0.038830806 0.012672511 -0.058940023 -0.019065145
0.11357287 0.021076683 0.011718067 -0.18529399 -0.121622086 -0.09459491 -0.2727833 -0.03413595
-0.023533275 -0.041319836 -0.04944915 -0.010581432 0.07745562 -0.07504856 0.064931765 0.16134997
0.002013778 -0.0008153653 0.08807722 0.08998473 0.07668765 -0.1205071 0.104601026 0.09817532
-0.087656155 0.06743148 0.042888913 0.031621233 0.03569728 -0.09235271 0.0044182735 -0.08683235
-0.098802246 -0.009402398 -0.039752293 -0.049985044 0.059641674 -0.022187652 0.028523713 0.061379567
0.028448818 0.05020733 -0.04715052 0.055668905 0.060836576 0.012445221 0.013922701 0.00749594
-0.009784533 -0.0868418 -0.10544639 -0.06125256 0.024724701 -0.0071077305 -0.014724492 -0.08338411
0.025704859 0.08630763 -0.101492345 0.014749518 0.05632897 0.008986393 -0.10982125 -0.0088491645
-0.05850997 -0.058268655 0.041047875 0.09298625 0.08548678 0.28153223 0.01585813 0.08628715
-0.0109303715 0.10429431 -0.006902644 0.07028805 -0.15324043 -0.04571466 0.084728256 0.06573589
-0.10229048 -0.05713394 0.028384577 -0.021803375 -1.0047811e-05 0.0147941755 -0.03765465 -0.0116112605
0.09921347 -0.101183645 -0.09818691 0.058256723 -0.013689895 -0.06888202 0.06818416 -0.087768994
00000000: 4c28 b4bb 149d 1e3c 33a9 1339 7f8d 82b9
00000010: 6a5e 0bbe 8bd7 0cbd c7e8 7dbd 9427 b1bc
00000020: 38a6 d33b e6d6 c63d dad3 8ebb b995 b2bd
00000030: 5eeb e43d 19fc 483e a5cd 48bd e265 e33a
00000040: e02a e83d f131 9d3d 729a 43bd 05cc febd
00000050: 8f7e 0bbe 2ea8 b0bd b3b9 1b3d d86a 083d
00000060: 4283 c3bd 30ad 793c 966c 07bd a55d a8bd
00000070: 571e d13d 4ca6 4a3d 100b dc3d 1646 db3d
00000080: c040 6f3d 574f 9e3d 4e40 063e 3913 e5bc
00000090: fb41 b2bc d1ff 80bc e581 c9bc dba3 3abd
000000a0: 756c 073e 6ef5 92bd d639 873d d92f f93c
000000b0: 95dd b6bd 219c fabc 321f 42bd ed96 a63d
000000c0: 2353 de3c 74aa 013e c1ac 90bd 5f04 a53c
000000d0: ddbf 01bd 9f03 ee3d aecb 6d3d 6232 b0bd
000000e0: 5c96 023d 8196 47bd 0e1f ae3d 8d3a 153d
000000f0: 9cb4 bd3c 78ab 83bd 0179 983d d65a 17be
00000100: 675d 67bd ebf9 f2bd 58b9 4f3d 9c56 6abc
00000110: d823 293b 6d62 4ebc 5a7a 83bd 24c6 483d
00000120: 6055 8ebd 2ff5 82bd d6e8 363d 6070 aabd
00000130: d4e6 75be 3c4e b13b b467 9abc bf73 a5bd
00000140: faa6 8ebd c4e1 2ebd b891 9f3d 73aa 763d
00000150: 5eb4 2739 6fb4 21be 0ecb 0a3e f742 6a3d
00000160: 11ad b7bc 4c01 5cbd 9962 94bd 472c ec3d
00000170: ec58 78bc ed55 cdbc 55e6 9a3d c65e 873d
00000180: babb 6ebd 0e11 973d dd0c 10bd ecc0 383d
00000190: d722 973c eeef 1c3d 0adb 78bd 3fdd 0bbe
000001a0: 2c33 b23d 0aad 943d 3377 8e3c 31f2 883d
000001b0: 3c60 833d c172 613c 0f70 c33d 5b61 1b3d
000001c0: 8714 803e 123f 8bbd be68 6dbd 384d e53d
000001d0: 7c98 fc3d 92b4 2c3d 3727 89bd 1f64 f3bd
000001e0: f305 113c dca9 2e3e 9ce8 03be d57e 933c
000001f0: 3018 c63b 25ad 2b3d 9a60 c63d 2fd2 d03d
00000200: f739 30bd 7051 e8bc 6571 cebd 35e4 c33d
00000210: 5798 133d ac0e 4cbd e7b3 a9bb 0d41 063d
00000220: 2bf5 65bb 6acf e83b 9d0a e1bc 633c 84bb
00000230: 43a4 a63c 1f85 893d 10b1 08bd 2f18 403d
00000240: 2c73 ab3c 6376 cf3d 288d 16bd 4ad1 da3d
00000250: 6f3e 293e e445 553d 719a 383d 291d de3b
00000260: 2b72 81bd 9c5d b8bd 9a0c 943d 7454 70bd
00000270: 0d0d 1fbd 5da0 4f3c 186b 71bd 822e 9cbc
00000280: e598 e83d 02a9 ac3c 23fd 3f3c b5bd 3dbe
00000290: 0015 f9bd faba c1bd 41aa 8bbe 23d2 0bbd
000002a0: dbc8 c0bc fd3e 29bd 318b 4abd be5d 2dbc
000002b0: 0da1 9e3d 0fb3 99bd f2fa 843d ed38 253e
000002c0: 97f9 033b 3dbe 55ba d461 b43d ea49 b83d
000002d0: 6a0e 9d3d 6dcc f6bd 1039 d63d 2410 c93d
000002e0: 1285 b3bd 8419 8a3d 49ac 2f3d 4485 013d
000002f0: 5037 123d 6b23 bdbd 2ac7 903b 29d5 b1bd
00000300: d558 cabd 840c 1abc 4dd3 22bd 1ebd 4cbd
00000310: d44a 743d e1c2 b5bc 90aa e93c 2469 7b3d
00000320: 7f0d e93c 34a6 4d3d e720 41bd 1405 643d
00000330: c62f 793d 0ae7 4b3c 0a1c 643c 81a0 f53b
00000340: 4e4f 20bc 1dda b1bd 47f4 d7bd f7e3 7abd
00000350: 758b ca3c f7e7 e8bb ff3e 71bc 4ac5 aabd
00000360: ff92 d23c 0ec2 b03d 38db cfbd f6a7 713c
00000370: 35b9 663d aa3b 133c f7e9 e0bd 16fc 10bc
00000380: 26a8 6fbd 1dab 6ebd d121 283d 936f be3d
00000390: b113 af3d fe24 903e e9e8 813c 51b7 b03d
000003a0: 4d15 33bc 4198 d53d 932f e2bb 2ef3 8f3d
000003b0: 0feb 1cbe 4c3f 3bbd 0286 ad3d 8aa0 863d
000003c0: ac7d d1bd 4705 6abd c686 e83c fe9c b2bc
000003d0: 0593 28b7 4563 723c c33b 1abd 283d 3ebc
000003e0: 6f30 cb3d 5f39 cfbd 3816 c9bd 9a9e 6e3d
000003f0: 954b 60bc 0412 8dbd 23a4 8b3d 3bc0 b3bd

lr.10.in_norm.weight f4 [24]
0.8770646 1.0698577 1.0657693 1.0848022 1.0349811 0.62775165 1.0692273 1.0569261
1.0886143 0.94586694 0.8544955 0.80036277 1.1948075 0.9074414 1.0178008 1.0906738
0.8036317 1.0459964 0.9508063 1.066329 0.7728233 0.8135401 1.0290164 1.2755163
00000000: 4e87 603f 19f1 883f 216b 883f ccda 8a3f
00000010: 437a 843f 55b4 203f 71dc 883f 5b49 873f
00000020: b757 8b3f 5624 723f 38c0 5a3f 93e4 4c3f
00000030: 74ef 983f 144e 683f 4c47 823f 339b 8b3f
00000040: cfba 4d3f 36e3 853f 0b68 733f 787d 883f
00000050: bfd7 453f 2a44 503f cfb6 833f 1e44 a33f

lr.10.in_norm.bias f4 [24]
-0.0013579164 -0.005663126 0.08797167 0.037430886 -0.09555202 0.03165913 0.07076898 0.056814935
0.028595498 -0.0422231 -0.05329866 0.07452206 0.012376626 0.065034 0.036609598 0.03491315
-0.079476684 -0.1007983 0.029329188 0.118031874 -0.13816613 -0.20742972 0.040733468 0.06793879
00000000: 1dfc b1ba be91 b9bb 7e2a b43d 2151 193d
00000010: c7b0 c3bd 01ad 013d 54ef 903d c7b6 683d
00000020: 1b41 ea3c 21f2 2cbd b24f 5abd 069f 983d
00000030: 55c7 4a3c 8c30 853d f2f3 153d 1701 0f3d
00000040: acc4 a2bd 576f cebd c443 f03c b2ba f13d
00000050: 6c7b 0dbe 7568 54be 23d8 263d 7e23 8b3d

lr.12.weight f4 [24, 24, 3, 3]
-0.03015402 -0.13585968 0.023795879 -0.13542053 -0.077739835 -0.0021436862 0.031724155 0.024078557
0.07707476 0.0878754 -0.1415661 0.039061308 0.02408767 0.05738483 0.12567039 0.053123504
0.004005734 -0.07832971 -0.093254074 -0.16325384 -0.070246 -0.099623084 -0.082742505 -0.08723841
0.06565185 -0.026564341 -0.0842613 -0.084202595 0.032067996 -0.052788544 0.17474537 0.034436185
0.11413508 0.03960918 0.117581114 -0.07595942 -0.02193155 0.116646886 -0.12982082 0.01375927
0.18966201 0.014961508 -0.12982255 -0.023010744 -0.10400655 0.04364039 -0.012040414 0.018795917
-0.14829521 -0.15419957 -0.08812367 -0.055932026 -0.061041728 -0.122453704 0.022691954 0.05332002
-0.037771292 0.09374289 0.07792824 -0.082202435 0.014805137 -0.054590877 -0.09255791 -0.0684628
-0.00016288066 -0.13310248 -0.043090858 0.028506499 0.008361046 -0.00036752532 0.013790023 -0.10151698
-0.042314254 -0.05494407 -0.08366715 0.0026659728 -0.1420995 -0.047504175 -0.05720115 -0.027969336
-0.08379039 -0.0972475 -0.12609825 -0.09572329 0.10130159 0.047741216 0.13018511 0.059731264
-0.08537395 -0.02936461 0.013322456 -0.07625868 -0.06845443 0.011325554 0.080099426 0.0890806
-0.0049297623 0.11278813 -0.019906849 0.06749944 0.048140705 0.008128929 0.06350541 -0.13270594
-0.09962985 0.04185637 -0.09811027 -0.035555378 0.07478053 0.039208733 0.021033542 -0.014499444
0.03917262 -0.068248585 -0.08015063 -0.15318614 -0.13403326 0.13546777 0.045554016 0.13159643
0.032559067 0.08936986 0.046187095 -0.035585374 0.06807975 0.10278759 0.008166668 0.018535173
0.09217761 -0.022642473 0.10241062 -0.11133482 -0.0006898067 0.09114414 0.044030737 0.076074906
-0.10932533 0.03865158 -0.01593327 -0.029270818 0.024519414 -0.06135856 0.061836857 -0.02656557
0.041771613 -0.09129984 -0.105442844 0.012490669 -0.021741731 -0.077160016 -0.069211155 -0.07946342
0.028816087 0.0383052 -0.02852503 -0.021031154 0.076659136 -0.0310818 -0.09635806 -0.05813203
-0.11182369 0.09775573 0.093456306 -0.030960485 0.08362051 0.035253778 0.0713154 0.015381714
0.018941257 -0.057397164 -0.028088626 0.11627796 -0.11427168 -0.05844828 -0.0025612258 -0.054704264
-0.06495507 -0.01842009 0.06614412 -0.054497015 -0.010274529 0.054991044 -0.054000244 0.050213862
0.059809215 0.046068158 -0.08203613 -0.102072984 -0.041337878 -0.045618337 0.02259092 0.061495535
-0.06828915 0.024248086 -0.0009933569 -0.021465832 0.038703896 -0.052360192 0.12378836 -0.046125736
0.014047123 0.11474797 -0.055648986 0.06565999 -0.081493326 -0.0039928462 -0.048385743 -0.03659164
0.07828954 0.017499425 0.022140583 -0.08111202 0.066868134 0.025378129 0.044550274 -0.10106192
-0.1389476 -0.16452543 -0.0007332672 -0.012452375 -0.14841948 0.06182365 -0.12037823 0.06051525
-0.102194086 0.050270546 -0.030577715 0.063753605 -0.013447238 0.08648216 -0.054107923 -0.0753914
-0.032613307 -0.10282912 -0.0984481 0.066855 -0.08264712 -0.025132433 -0.038456444 -0.04133735
-0.018414952 -0.008149504 0.030571196 0.12608717 -0.0735632 -0.040083908 0.0900068 -0.055026196
-0.04080005 -0.024849933 0.051903583 0.06651003 -0.13427006 0.030080434 0.07505902 0.01099471
00000000: 9005 f7bc cd1e 0bbe 93ef c23c aeab 0abe
00000010: 1036 9fbd 167d 0cbb 30f1 013d 6540 c53c
00000020: 5fd9 9d3d 05f8 b33d b4f6 10be c0fe 1f3d
00000030: 8153 c53c 5b0c 6b3d bdaf 003e 0898 593d
00000040: 8842 833b 546b a0bd fefb bebd 042c 27be
00000050: 23dd 8fbd 3007 ccbd e774 a9bd 0daa b2bd
00000060: 7a74 863d 769d d9bc 3091 acbd 6972 acbd
00000070: bb59 033d cd38 58bd 73f0 323e f50c 0d3d
00000080: a7bf e93d 3c3d 223d 5ece f03d 9d90 9bbd
00000090: cba9 b3bc 90e4 ee3d c0ef 04be 906e 613c
000000a0: c236 423e 1d21 753c 34f0 04be 0781 bcbc
000000b0: 6301 d5bd 44c0 323d 2845 45bc e5f9 993c
000000c0: b3da 17be 7ee6 1dbe 2f7a b4bd fb18 65bd
000000d0: e406 7abd 02c9 fabd 7ae4 b93c 1866 5a3d
000000e0: 12b6 1abd 46fc bf3d d798 9f3d c059 a8bd
000000f0: 3f91 723c af9a 5fbd 008f bdbd 3936 8cbd
00000100: f2ca 2ab9 044c 08be 0a80 30bd 7686 e93c
00000110: c5fc 083c 6ab0 c0b9 8cef 613c 22e8 cfbd
00000120: b651 2dbd 080d 61bd af59 abbd 9ab7 2e3b
00000130: 8882 11be bd93 42bd c14b 6abd f31f e5bc
00000140: 4c9a abbd b329 c7bd e61f 01be 930a c4bd
00000150: 3577 cf3d 4b8c 433d 3f4f 053e c5a8 743d
00000160: 8ad8 aebd 0d8e f0bc 6e46 5a3c 832d 9cbd
00000170: d631 8cbd d18e 393c 2b0b a43d e46f b63d
00000180: d889 a1bb 77fd e63d b013 a3bc 253d 8a3d
00000190: 302f 453d 332f 053c 200f 823d 11e4 07be
000001a0: bc0a ccbd 9671 2b3d 0aee c8bd 84a2 11bd
000001b0: 8926 993d 5699 203d 894e ac3c 138f 6dbc
000001c0: 7873 203d eac5 8bbd 0326 a4bd d4dc 1cbe
000001d0: 0440 09be 10b8 0a3e d996 3a3d 37c1 063e
000001e0: a85c 053d 8c07 b73d ae2e 3d3d f8c1 11bd
000001f0: 656d 8b3d 4d82 d23d 7dcd 053c 13d7 973c
00000200: 9dc7 bc3d b57c b9bc a9bc d13d 8303 e4bd
00000210: 25d4 34ba c7a9 ba3d 9359 343d 29cd 9b3d
00000220: f5e5 dfbd 1f51 1e3d 7d86 82bc 5bc9 efbc
00000230: f0dc c83c 1d53 7bbd a548 7d3d 0aa0 d9bc
00000240: b618 2b3d 69fb babd 6bf2 d7bd aaa5 4c3c
00000250: b71b b2bc 1206 9ebd 94be 8dbd b8bd a2bd
00000260: b70f ec3c eae5 1c3d 53ad e9bc 8749 acbc
00000270: 77ff 9c3d 429f febc 6057 c5bd da1b 6ebd
00000280: d203 e5bd 2834 c83d 0566 bf3d d8a0 fdbc
00000290: 3b41 ab3d 4466 103d cf0d 923d 9603 7c3c
000002a0: b22a 9b3c 4a19 6bbd 1e1a e6bc 2423 ee3d
000002b0: 4507 eabd 7767 6fbd 3dda 27bb 9411 60bd
000002c0: 2a07 85bd bbe5 96bc 9276 873d 4338 5fbd
000002d0: 8056 28bc 4a3e 613d 5c2f 5dbd 0dad 4d3d
000002e0: 82fa 743d f7b1 3c3d 8f02 a8bd a40b d1bd
000002f0: e851 29bd 4bda 3abd 9810 b93c bee2 7b3d
00000300: 2fdb 8bbd eca3 c63c 8733 82ba 1dd9 afbc
00000310: fa87 1e3d a477 56bd c084 fd3d 57ee 3cbd
00000320: e725 663c fc00 eb3d 31f0 63bd bf78 863d
00000330: f9e5 a6bd 6cd6 82bb 2130 46bd 1ee1 15bd
00000340: 4456 a03d f45a 8f3c 2b60 b53c 0f1e a6bd
00000350: 29f2 883d cbe5 cf3c 597a 363d 8df9 cebd
00000360: 4848 0ebe 5b79 28be bb38 40ba 0c05 4cbc
00000370: 47fb 17be cc3a 7d3d dd88 f6bd d7de 773d
00000380: 224b d1bd 7de8 4d3d 1e7e fabc 4091 823d
00000390: ce51 5cbc 8f1d b13d 45a0 5dbd ce66 9abd
000003a0: 8895 05bd 1398 d2bd 289f c9bd 46eb 883d
000003b0: e542 a9bd 88e2 cdbc 8184 1dbd 5a51 29bd
000003c0: f4da 96bc 7f85 05bc 7270 fa3c ff1c 013e
000003d0: 4ea8 96bd 062f 24bd 7c55 b83d 2663 61bd
000003e0: f41d 27bd 1692 cbbc da98 543d 6936 883d
000003f0: 177e 09be 3e6b f63c 8bb8 993d 2823 343c

lr.13.in_norm.weight f4 [24]
0.95425266 0.9224963 0.9908547 0.9244186 1.1625099 0.9363222 0.93341005 1.0088829
1.068668 1.0852613 0.9715891 0.987031 0.8105793 0.8885356 0.8969637 1.0048976
1.0561471 0.92068475 0.98713136 1.0800217 1.2338108 0.98557454 1.0087856 1.076619
00000000: e749 743f b828 6c3f a7a8 7d3f b3a6 6c3f
00000010: 20cd 943f d0b2 6f3f f6f3 6e3f 1323 813f
00000020: 1dca 883f d8e9 8a3f 10ba 783f 10ae 7c3f
00000030: 2082 4f3f 1277 633f 6a9f 653f 7ca0 803f
00000040: d42f 873f ffb1 6b3f a4b4 7c3f 273e 8a3f
00000050: 83ed 9d3f 9d4e 7c3f e31f 813f a7ce 893f

lr.13.in_norm.bias f4 [24]
0.023454698 -0.009932457 -0.05161382 -0.0014459405 -0.0031162438 -0.021613088 0.01534535 0.0028601082
-0.11233552 -0.00835328 -0.002436051 0.016007787 0.01607857 0.029887563 0.042025506 -0.0043621445
-0.00586156 0.012311105 0.022791283 0.016615959 0.012219711 -0.006667918 0.0067030964 0.039523017
00000000: 1124 c03c bebb 22bc 0369 53bd b685 bdba
00000010: e539 4cbb ee0d b1bc 106b 7b3c a770 3b3b
00000020: 2a10 e6bd 32dc 08bc 27a6 1fbb c322 833c
00000030: 35b7 833c c3d6 f43c f022 2c3d 52f0 8ebb
00000040: 5412 c0bb 84b4 493c c9b4 ba3c 311e 883c
00000050: 2f35 483c 8d7e dabb a6a5 db3b e3e2 213d

lr.15.weight f4 [24, 24, 3, 3]
-0.01891526 -0.01310252 0.037371866 0.16382788 -0.07487419 -0.056253634 0.10143775 -0.06484417
-0.03379654 0.12163243 -0.049865004 0.0052597397 -0.07724019 -0.095324144 -0.045307662 -0.09337161
-0.073901184 0.020480474 -0.10681932 0.09635667 -0.07050633 -0.045747112 0.16295652 -0.027438397
0.10276705 -0.002460575 0.052124273 -0.04396892 -0.021132 0.023062829 -0.063523814 -0.043415423
0.039605733 -0.10568068 -0.03619286 0.07901579 -0.13133173 -0.06065176 -0.030192299 -0.16526964
-0.09874116 0.06163868 -0.15009989 0.036823273 -0.07410961 -0.0822027 -0.041780263 -0.0017477458
-0.09455086 0.049592834 0.072878055 -0.038574215 -0.17007309 -0.10132044 -0.1264311 -0.07135163
0.028672565 0.024268487 -0.07740504 -0.06491858 0.060385503 -0.089834 0.005781495 -0.124013826
-0.0109716 -0.08096399 -0.016693097 -0.0022403677 0.016579732 0.07393587 0.041222848 -0.10389032
0.012448355 0.002576165 -0.08032859 0.08559048 0.07231503 -0.06310243 0.099800855 -0.06640533
0.0040011615 -0.13318445 0.06839936 0.10049345 -0.06708689 -0.113954686 0.12267489 0.11128826
0.1266548 0.034079377 0.057325453 -0.06131131 -0.032097943 -0.020975526 0.03848117 0.057890575
0.030370371 0.020902652 0.07860608 -0.13611545 0.10281043 0.060186908 0.039650932 0.063923776
-0.06342275 0.017916098 -0.015186028 -0.1059428 -0.02120055 0.09591389 0.09099382 0.15271111
0.12566616 -0.020689724 0.049337357 0.06076556 -0.03766939 -0.034895852 0.048471667 -0.06686017
0.03514496 -0.021213071 -0.0536051 -0.083164245 0.068074614 -0.13963284 -0.13997944 -0.01604595
0.05006245 -0.15339471 -0.028285343 0.1272225 -0.07548529 0.0277718 0.06959032 -0.1308968
-0.03568026 -0.053152155 -0.043731805 0.06902537 -0.011475953 -0.107876025 -0.02202413 -0.10483339
-0.009768386 -0.08195735 -0.034704644 0.016271232 -0.075508684 0.13445099 0.07497509 0.054566756
0.13104258 -0.13031006 0.042341445 0.04772707 -0.031964667 0.08350437 -0.09750696 0.019154191
-0.06477425 -0.012688979 0.046505176 0.12001777 0.09133811 0.10487941 -0.09079398 -0.088467404
-0.062302593 0.044226713 0.011698095 0.031122912 -0.06840559 -0.0070385705 -0.0012546506 -0.04912467
0.13955371 -0.0013564337 -0.040622357 0.10713346 0.061782215 -0.013860575 -0.08631667 -0.0812979
0.09500435 0.13372551 -0.057043068 0.029376822 0.062243935 0.15416715 -0.016823132 0.080303624
0.03291641 -0.00419227 0.04179927 0.14066315 0.0129505275 0.10960513 0.026391512 -0.122355424
0.0064155697 0.09380446 0.071056165 0.10559018 0.053578362 -0.06271819 -0.08914914 0.03889802
0.0047406144 0.13410357 -0.026646063 0.03285374 0.062125415 0.045806035 0.14847183 -0.06407512
0.03753365 0.04020735 -0.030184852 0.014816881 -0.026416538 -0.09696944 0.04058056 0.03810275
-0.10942544 0.09156021 -0.073772356 0.007867238 0.084188476 0.0007395376 -0.03414992 -0.041852128
-0.0040750857 -0.12729105 -0.16569816 -0.052438986 0.004307014 0.026589146 -0.097858235 -0.04533574
-0.15167053 -0.14732994 -0.033051603 0.1841054 0.00454849 0.051930908 0.04112339 0.0067118444
0.09984082 0.07566539 0.13540559 0.034548286 -0.030067611 -0.1303427 0.08797911 -0.0641993
00000000: 2df4 9abc f4ab 56bc 3e13 193d 7fc2 273e
00000010: a457 99bd 366a 66bd 98be cf3d 05cd 84bd
00000020: 3e6e 0abd 6c1a f93d 3f3f 4cbd e559 ac3b
00000030: 1b30 9ebd 4e39 c3bd 8794 39bd 9d39 bfbd
00000040: 8159 97bd abc6 a73c 16c4 dabd a556 c53d
00000050: 9f65 90bd 5361 3bbd 13de 263e 7dc6 e0bc
00000060: 8877 d23d 9941 21bb 4380 553d c118 34bd
00000070: 041d adbc 42ee bc3c c618 82bd 5fd4 31bd
00000080: 9f39 223d 1d6f d8bd f73e 14bd 08d3 a13d
00000090: d37b 06be fb6d 78bd d755 f7bc 723c 29be
000000a0: ce38 cabd d778 7c3d c9b3 19be 00d4 163d
000000b0: c7c6 97bd e459 a8bd c821 2bbd 9e14 e5ba
000000c0: e2a3 c1bd db21 4b3d 1741 953d ffff 1dbd
000000d0: a427 2ebe 1781 cfbd 2777 01be ce20 92bd
000000e0: bae2 ea3c b5ce c63c 8986 9ebd 08f4 84bd
000000f0: ca56 773d e3fa b7bd b272 bd3b f6fa fdbd
00000100: 3ac2 33bc 73d0 a5bd f6bf 88bc 22d3 12bb
00000110: 38d2 873c b06b 973d 4ad9 283d 73c4 d4bd
00000120: 2ff4 4b3c e0d4 283b 5183 a4bd 104a af3d
00000130: e719 943d d93b 81bd 6464 cc3d 85ff 87bd
00000140: 2d1c 833b 8161 08be f714 8c3d 83cf cd3d
00000150: da64 89bd 1361 e9bd f93c fb3d 19eb e33d
00000160: ccb1 013e d196 0b3d 18ce 6a3d 9121 7bbd
00000170: 2279 03bd ded4 abbc 6e9e 1d3d ab1e 6d3d
00000180: 49cb f83c 0a3c ab3c 39fc a03d d961 0bbe
00000190: 468e d23d 8c86 763d 0469 223d 78ea 823d
000001a0: c9e3 81bd c8c4 923c d1ce 78bc 8af8 d8bd
000001b0: c7ac adbc 806e c43d f85a ba3d 4d60 1c3e
000001c0: a1ae 003e 7f7d a9bc f815 4a3d 4fe5 783d
000001d0: 384b 1abd f4ee 0ebd 3a8a 463d fced 88bd
000001e0: 29f4 0f3d 09c7 adbc 0591 5bbd 0452 aabd
000001f0: b46a 8b3d e9fb 0ebe c556 0fbe cc72 83bc
00000200: 490e 4d3d 8113 1dbe aab6 e7bc 9d46 023e
00000210: 0898 9abd b081 e33c 5f85 8e3d d009 06be
00000220: 7725 12bd 13b6 59bd 1f20 33bd 2c5d 8d3d
00000230: a305 3cbc 1bee dcbd f36b b4bc e3b2 d6bd
00000240: 950b 20bc 41d9 a7bd 7526 0ebd 3f4b 853c
00000250: 4ca4 9abd 85ad 093e 8a8c 993d 6481 5f3d
00000260: 0730 063e 0070 05be 396e 2d3d 767d 433d
00000270: 62ed 02bd 5704 ab3d bbb1 c7bd 40e9 9c3c
00000280: 5da8 84bd 6fe5 4fbc 367c 3e3d e0cb f53d
00000290: 7a0f bb3d 04cb d63d 32f2 b9bd 662e b5bd
000002a0: 0131 7fbd 1227 353d 5ea9 3f3c 7af5 fe3c
000002b0: 3b18 8cbd cfa3 e6bb 1773 a4ba f336 49bd
000002c0: 2be7 0e3e 5dca b1ba a163 26bd ca68 db3d
000002d0: 590f 7d3d 7717 63bc cbc6 b0bd 837f a6bd
000002e0: a491 c23d 57ef 083e fea5 69bd a9a7 f03c
000002f0: 7ff3 7e3d fedd 1d3e aad0 89bc 3a76 a43d
00000300: 5cd3 063d 4f5f 89bb b635 2b3d 000a 103e
00000310: 732e 543c a878 e03d 0333 d83c 7b95 fabd
00000320: b339 d23b 8d1c c03d e585 913d aa3f d83d
00000330: fc74 5b3d 6572 80bd d393 b6bd 8853 1f3d
00000340: 2857 9b3b 7252 093e d848 dabc a591 063d
00000350: 3877 7e3d 1c9f 3b3d 0009 183e d139 83bd
00000360: e2bc 193d 76b0 243d 3946 f7bc 81c2 723c
00000370: 7f67 d8bc ea97 c6bd cd37 263d a111 1c3d
00000380: 721a e0bd eb83 bb3d f615 97bd 96e5 003c
00000390: 026b ac3d 87dd 413a c9e0 0bbd 236d 2bbd
000003a0: 4c88 85bb 9658 02be c7ac 29be 43ca 56bd
000003b0: da21 8d3b 7bd1 d93c e669 c8bd f8b1 39bd
000003c0: 854f 1bbe a9dd 16be 1e61 07bd 2086 3c3e
000003d0: 800b 953b 81b5 543d 0071 283d 08ef db3b
000003e0: 5879 cc3d 75f6 9a3d c3a7 0a3e 8182 0d3d
000003f0: 5a50 f6bc 8f78 05be 642e b43d ec7a 83bd

lr.16.in_norm.weight f4 [24]
1.0316519 1.0511187 0.96834373 0.94599444 1.0518391 1.0508846 0.94056606 1.0907426
0.98635715 1.0866259 1.199786 1.0662204 1.0136586 1.0668961 1.0297393 1.000937
1.097156 0.9189818 0.9720434 1.0809484 1.170909 0.94124967 0.9971588 1.0244552
00000000: 2b0d 843f 0f8b 863f 60e5 773f b12c 723f
00000010: aaa2 863f 6383 863f f0c8 703f 749d 8b3f
00000020: e781 7c3f 8f16 8b3f 9692 993f e979 883f
00000030: 91bf 813f 0d90 883f 7fce 833f b41e 803f
00000040: 9c6f 8c3f 6442 6b3f d6d7 783f 845c 8a3f
00000050: 59e0 953f bdf5 703f cd45 7f3f 5921 833f

lr.16.in_norm.bias f4 [24]
-0.021294473 0.015733715 -0.012103599 -0.00045650796 0.0056381384 0.02498305 0.0062991525 -0.01612674
-0.003153892 -0.022709584 0.042566027 0.02872581 -0.0117077315 0.02386541 0.014999513 -0.026633022
0.060789257 0.0037630955 0.0016734257 0.026606543 0.036852915 -0.008069989 0.0050189397 -0.019429542
00000000: bf71 aebc fee3 803c 2c4e 46bc 7657 efb9
00000010: 22c0 b83b 41a9 cc3c 1f69 ce3b 3a1c 84bc
00000020: 87b1 4ebb 7309 babc b759 2e3d 6452 eb3c
00000030: c9d1 3fbc 6481 c33c 84c0 753c 7f2d dabc
00000040: 28fe 783d 449e 763b d956 db3a f7f5 d93c
00000050: 15f3 163d fd37 04bc eb75 a43b b42a 9fbc

lr.18.weight f4 [1, 24, 1, 1]
-0.056972858 0.40837783 -0.15845917 0.17070296 0.45529804 0.178806 0.24536422 -0.13567726
-0.297403 -0.13538128 -0.2408289 0.23062138 -0.4472346 0.21597952 0.16697966 0.33209288
-0.13903452 -0.19919553 -0.45875096 0.46307966 0.10827969 -0.2714707 0.29556087 0.06805705
00000000: 5f5c 69bd e616 d13e 1f43 22be c2cc 2e3e
00000010: d31c e93e ec18 373e c240 7b3e fbee 0abe
00000020: 3545 98be 64a1 0abe da9b 76be 0328 6c3e
00000030: effb e4be bc29 5d3e b7fc 2a3e 1408 aa3e
00000040: 115f 0ebe eaf9 4bbe 68e1 eabe c718 ed3e
00000050: bec1 dd3d 35fe 8abe c153 973e 7f61 8b3d

exp_avg f4 [24, 1, 3, 3]
-0.0028028912 -0.0023444165 -0.002409825 -0.0022956086 -0.002161163 -0.0023176665 -0.0022254204 -0.0022146823
-0.002312483 -0.008237316 -0.008777446 -0.009656882 -0.009095456 -0.009350171 -0.010083335 -0.008902051
-0.009015361 -0.009576675 -0.0026367113 -0.0024322316 -0.0021147137 -0.0024318073 -0.0023187601 -0.0020421625
-0.0023517061 -0.0023696492 -0.0022027956 0.0030896405 0.003267709 0.0034531327 0.0031731788 0.0033853087
0.003529047 0.0033765314 0.003609492 0.0036882313 -0.0013462824 -0.0013173101 -0.0012780722 -0.001334279
-0.0012981299 -0.0012666238 -0.001307362 -0.0012721961 -0.0012441567 -0.0010832228 -0.0010510063 -0.0010747894
-0.0010414685 -0.001042717 -0.0010795193 -0.0010603959 -0.0010689896 -0.0010974437 -0.00040664946 -0.0004361427
-0.0004497324 -0.00046884338 -0.00048488792 -0.00049961655 -0.00047795902 -0.000491961 -0.00050814316 -0.00094657484
-0.0009771497 -0.0009450324 -0.0009873623 -0.0009954817 -0.0009639019 -0.0010084538 -0.0010065434 -0.0009897922
-0.001257269 -0.0012785873 -0.0016753802 -0.0015068958 -0.0011003787 -0.0011274485 -0.0013850909 -0.0009064523
-0.0009595266 0.002104057 0.0019961866 0.0015783439 0.0033209252 0.0027855162 0.002291662 0.0033292458
0.0028374873 0.0023864692 -0.0020420474 -0.0021330593 -0.0019877504 -0.002802492 -0.0025047483 -0.0022350785
-0.0027750344 -0.0025109283 -0.0022646738 -0.0016534614 -0.0015566557 -0.0016074566 -0.0016802596 -0.0015602837
-0.001521341 -0.0016395205 -0.0014868213 -0.001476897 0.0019523423 0.001568213 0.00049223885 0.0018155242
0.0014062012 0.000606048 0.0016529165 0.0012391357 0.00069395866 -0.00894053 -0.008844854 -0.008812288
-0.008460659 -0.008506014 -0.008851802 -0.00807136 -0.008243203 -0.008886053 0.0030478018 0.0030171187
0.0030289222 0.0029385968 0.0029050794 0.0028986656 0.0028540182 0.002809753 0.002814083 -0.0011082054
-0.0010511759 -0.0007360779 -0.0011665984 -0.0011543302 -0.0008679807 -0.0011074333 -0.0011440202 -0.000896845
-0.0017812446 -0.0018792923 -0.0019052366 -0.0016746062 -0.0019257832 -0.0019573485 -0.001751515 -0.002069752
-0.0021640433 0.0023587237 0.0023178293 0.0022957157 0.0022501398 0.0022780008 0.0022681537 0.0022618822
0.002320527 0.0023374099 -0.0073626568 -0.008082 -0.008596836 -0.0073316772 -0.007902788 -0.008329532
-0.007421066 -0.007947939 -0.008348746 -0.0011724373 -0.001446977 -0.0015182175 -0.0011979798 -0.0013135412
-0.0011579494 -0.0010308597 -0.0011112901 -0.0008381548 -0.0014268383 -0.0015714123 -0.0014074042 -0.0014568006
-0.0015454035 -0.0014755793 -0.0014450419 -0.0014644841 -0.0014226118 -0.0010688741 -0.0012643778 -0.001698279
-0.0008099549 -0.00071755284 -0.0009703512 -0.0011943347 -0.0010958294 -0.0012614627 -0.0014312024 -0.0017396745
-0.0018856156 -0.0015478075 -0.0017500196 -0.0018375876 -0.001933147 -0.0020077382 -0.0018487314 0.0026819706
0.002680028 0.0027109054 0.0025957325 0.0025845652 0.0026166476 0.0025230255 0.0025268167 0.0025808963
00000000: b6b0 37bb c8a4 19bb 28ee 1dbb ec71 16bb
00000010: 4ca2 0dbb fee3 17bb 5cd8 11bb 3424 11bb
00000020: 078d 17bb cff5 06bc 47cf 0fbc e637 1ebc
00000030: 1c05 15bc 7631 19bc 9334 25bc e8d9 11bc
00000040: 2ab5 13bc 7ce7 1cbc adcc 2cbb 1366 1fbb
00000050: 0297 0abb f55e 1fbb 57f6 17bb cdd5 05bb
00000060: 151f 1abb 1e4c 1bbb c75c 10bb 917b 4a3b
00000070: 0f27 563b f44d 623b 1bf5 4f3b 0edc 5d3b
00000080: 9547 673b cc48 5d3b 3a8d 6c3b 41b6 713b
00000090: be75 b0ba 98a9 acba fd84 a7ba f9e2 aeba
000000a0: 0326 aaba d804 a6ba ca5b abba d1bf a6ba
000000b0: f912 a3ba edfa 8dba ebc1 89ba f3df 8cba
000000c0: e281 88ba c7ab 88ba a87e 8dba fbfc 8aba
000000d0: 571d 8cba 1ad8 8fba 9133 d5b9 15aa e4b9
000000e0: 10ca ebb9 18cf f5b9 8e38 feb9 b3f8 02ba
000000f0: 9396 fab9 f2f6 00ba e934 05ba 9023 78ba
00000100: b413 80ba 0dbc 77ba 626a 81ba d37a 82ba
00000110: 5dae 7cba 182e 84ba feed 83ba eabb 81ba
00000120: f2ca a4ba 4596 a7ba 6e98 dbba 0883 c5ba
00000130: 953a 90ba e5c6 93ba f08b b5ba fc9e 6dba
00000140: bd88 7bba 38e4 093b 74d2 023b 6fe0 ce3a
00000150: e1a3 593b 358d 363b b52f 163b 7a2f 5a3b
00000160: 23f5 393b 4f66 1c3b dfd3 05bb ccca 0bbb
00000170: eb44 02bb 03aa 37bb b426 24bb 657a 12bb
00000180: 5add 35bb 638e 24bb ec6a 14bb f5b8 d8ba
00000190: b308 ccba 4bb1 d2ba 283c dcba 6f82 ccba
000001a0: bc67 c7ba 2ee5 d6ba 72e1 c2ba 7194 c1ba
000001b0: bde5 ff3a 7f8c cd3a 9709 013a e2f6 ed3a
000001c0: 4850 b83a 31df 1e3a ada6 d83a 7f6a a23a
000001d0: c7ea 353a 4d7b 12bc 02ea 10bc 6a61 10bc
000001e0: 939e 0abc cf5c 0bbc 2607 11bc bd3d 04bc
000001f0: 800e 07bc cf96 11bc a1bd 473b daba 453b
00000200: e280 463b 7995 403b 2563 3e3b 8af7 3d3b
00000210: 7b0a 3b3b d523 383b 7a6c 383b 3441 91ba
00000220: 9cc7 89ba 5af5 40ba 8ce8 98ba e54c 97ba
00000230: 3389 63ba 4c27 91ba f3f2 95ba 401a 6bba
00000240: a778 e9ba 9652 f6ba 22b9 f9ba 767e dbba
00000250: 906a fcba dc46 00bb 1793 e5ba ada4 07bb
00000260: 9fd2 0dbb d194 1a3b b9e6 173b b873 163b
00000270: 1577 133b 834a 153b 4ea5 143b 163c 143b
00000280: fc13 183b 3b2f 193b 7142 f1bb 5d6a 04bc
00000290: bed9 0cbc 913e f0bb b27a 01bc 9778 08bc
000002a0: 6a2c f3bb 1338 02bc 2ec9 08bc 78ac 99ba
000002b0: 7ea8 bdba edfe c6ba 8805 9dba 212b acba
000002c0: 56c6 97ba e91d 87ba b5a8 91ba 9eb7 5bba
000002d0: c004 bbba d9f7 cdba a678 b8ba 1ef2 beba
000002e0: 238f caba 3a68 c1ba 8f67 bdba eff3 bfba
000002f0: ee76 baba 7719 8cba 7bb9 a5ba ca98 deba
00000300: 2753 54ba 281a 3cba 2b5f 7eba 398b 9cba
00000310: efa1 8fba aa57 a5ba 2f97 bbba ca05 e4ba
00000320: c326 f7ba cddf caba ea60 e5ba 35db f0ba
00000330: a661 fdba 4294 03bb 2251 f2ba 00c4 2f3b
00000340: 69a3 2f3b 72a9 313b 2a1d 2a3b cf61 293b
00000350: 107c 2b3b 5859 253b f398 253b 4124 293b
